pytorch_model/model.pt (torch, 46712 bytes, 6 tensors)

weight f4 [128, 4]
0	0x3e49f84a	0.19723621
1	0xbe9d1d36	-0.3068635
2	0xbd4b7165	-0.04966869
3	0xbe1741f4	-0.14771253
4	0x3efe69b6	0.49690026
5	0xbf104c84	-0.56366754
6	0x3d7e8b31	0.062144462
7	0x3ece9db2	0.40354687
8	0x3eecc863	0.46246633
9	0xbe643719	-0.22286643
10	0x3ebd99ec	0.37031496
11	0x3d92c81e	0.071670756
12	0x3ef22cc9	0.47299793
13	0xbed8ce32	-0.42344815
14	0x3f01f619	0.5076614
15	0x3f01a4a5	0.5064185
16	0x3e5a349a	0.21309128
17	0x3cf51a81	0.029919865
18	0x3ed2e5e5	0.4119102
19	0x3eb86b64	0.36019433
20	0x38d4e900	0.000101523474
21	0x3ea8b634	0.3295151
22	0xbe9f2499	-0.3108261
23	0x3eeca1a7	0.4621708
24	0x3edc9b79	0.43087366
25	0xbe57923c	-0.21051878
26	0xbebd1597	-0.36930534
27	0xbf131b7a	-0.574638
28	0x3da566fe	0.08076285
29	0xbd40872e	-0.047003917
30	0x3e54dc95	0.2078727
31	0xbed41920	-0.4142542
32	0x3e466ce1	0.19377472
33	0xbec9c6c2	-0.39409453
34	0xbdcf509b	-0.10122796
35	0x3ec41012	0.3829351
36	0x3e87064d	0.26371995
37	0xbda65b92	-0.081229344
38	0xbeb7aa82	-0.35872275
39	0xbf063464	-0.5242369
40	0xbcc03845	-0.023464331
41	0xbedfeda7	-0.43736002
42	0xbea94bb6	-0.33065575
43	0x3d9021ee	0.070377216
44	0xbee967b6	-0.45586938
45	0x3e3bb2a4	0.18329865
46	0xbf1642f7	-0.5869593
47	0xbf1a9370	-0.6038122
48	0x3e573461	0.21016075
49	0xbf1895b3	-0.5960342
50	0x3ed460f7	0.41480228
51	0x3ebea6ea	0.3723672
52	0xbc3698dc	-0.011144843
53	0x3d353c9a	0.044247247
54	0x3e225418	0.15852392
55	0xbe066cdc	-0.13127464
56	0xbee04027	-0.43798944
57	0x3eb13673	0.34611854
58	0xbed916cc	-0.42400205
59	0xbef8ed35	-0.48618475
60	0xbdeaa040	-0.114563465
61	0x3d40def0	0.04708761
62	0x3ef5d058	0.48010516
63	0xbec017fc	-0.375183
64	0x3e1ccc16	0.15312228
65	0xbd855bd4	-0.065116554
66	0xbeb109fa	-0.34577924
67	0xbe891378	-0.26772666
68	0xbd2c2138	-0.042023867
69	0x3ca6085d	0.02026766
70	0x3dfa9d71	0.12237061
71	0x3e27f36c	0.16401452
72	0x3e8b1c97	0.2717025
73	0x3e6c8210	0.2309649
74	0x3ea93563	0.33048543
75	0x3eabf11a	0.33582383
76	0x3eb9a849	0.36261204
77	0xbe8eb094	-0.27869093
78	0xbedbd435	-0.4293534
79	0xbd48c994	-0.049020365
80	0xbf0c91a4	-0.5490973
81	0x3e844d2d	0.2584013
82	0xbe8c03e2	-0.27346712
83	0xbe90509b	-0.28186497
84	0x3e8ecec3	0.27892122
85	0xbf22eddf	-0.6364421
86	0x3f1e5b2e	0.6185788
87	0x3f112921	0.5670338
88	0xbe981112	-0.29700524
89	0x3f0b7e73	0.5448982
90	0xbe057bce	-0.13035509
91	0x3d37636a	0.044772543
92	0xbd1fa253	-0.038973164
93	0xbe900b6a	-0.28133708
94	0xbee9e5bb	-0.45683083
95	0xbf040ee7	-0.5158524
96	0x3edeba15	0.43501344
97	0xbdcb5ed9	-0.099302
98	0x3e664a95	0.22489388
99	0x3eb71517	0.35758278
100	0x3d1c562c	0.038168117
101	0x3ebc2d07	0.36753103
102	0xbed39008	-0.41320825
103	0xbdbd618b	-0.092471205
104	0x3eb00e72	0.3438602
105	0x3eeedbec	0.46652162
106	0x3edef74b	0.43548045
107	0xbe663601	-0.22481538
108	0x3e01f277	0.12690149
109	0xbd88eeef	-0.06686198
110	0xbe0535aa	-0.13008752
111	0xbe89a5ac	-0.2688421
112	0x3e0af4e6	0.13569984
113	0x3e662d65	0.22478254
114	0x3f1662d0	0.58744526
115	0x3de3c5c8	0.11121708
116	0x3e415e25	0.1888357
117	0xbe5027ed	-0.2032773
118	0x3d85cfc8	0.06533772
119	0x3da9264f	0.0825926
120	0x3e0a2fe0	0.13494825
121	0x3df14cc9	0.11782224
122	0x3ee29d6a	0.44260722
123	0xbe03b74c	-0.12862891
124	0x3ca9d791	0.020732673
125	0x3e6329e2	0.22183946
126	0xbe0471dc	-0.12934059
127	0xbecf5835	-0.40496984
128	0xbf073da8	-0.52828455
129	0x3e1add58	0.15123498
130	0xbdddc2a8	-0.10828143
131	0xbeb65707	-0.35613272
132	0xbd8d1298	-0.06888312
133	0xbe3ebcbc	-0.18626684
134	0xbe724e39	-0.23662652
135	0x3d295e8c	0.041349933
136	0x3d8e6fc0	0.06954908
137	0x3e6864cf	0.22694705
138	0xbf0565e3	-0.5210859
139	0x3e8a40bd	0.27002516
140	0xbea959cf	-0.3307633
141	0x3d21aea7	0.039473202
142	0xbf160a81	-0.5860978
143	0xbf1abf26	-0.6044792
144	0x3e5c5f40	0.2152071
145	0xbf02ac7f	-0.5104446
146	0x3ebb6037	0.36596844
147	0x3f14ea65	0.5817016
148	0x3e201381	0.1563244
149	0xbdf7aac4	-0.12093118
150	0xbef67308	-0.48134637
151	0xbf108277	-0.56449074
152	0x3ec036f2	0.3754192
153	0x3ee86b75	0.45394483
154	0xbebe5dbb	-0.37180886
155	0xbe702346	-0.23450956
156	0xbe89695d	-0.26838198
157	0x3e8bed47	0.27329466
158	0x3a0dfad0	0.0005416097
159	0xbf1b0852	-0.6055957
160	0xbed00b6c	-0.40633714
161	0x3ee90fc6	0.45519847
162	0x3efcb10c	0.49353826
163	0xbe8b2dfe	-0.27183527
164	0xbe7ec63d	-0.2488031
165	0x3d6e6032	0.058197208
166	0x3d7fd430	0.062458217
167	0x3de5da00	0.11223221
168	0xbece1292	-0.40248543
169	0x3e76492d	0.24051352
170	0x3ec0acfb	0.37631974
171	0x3d5a2438	0.053257197
172	0xbd3a4d5a	-0.045483924
173	0x3e041d7e	0.12901875
174	0xbf16d8de	-0.58924663
175	0xbe0c07b3	-0.13674812
176	0x3ecbcb9f	0.39803788
177	0xbef1c0d7	-0.47217438
178	0xbe7f53b0	-0.24934268
179	0xbe221f53	-0.15832262
180	0xbd590de6	-0.05299177
181	0x3e6e7dc6	0.23290166
182	0xbda33d62	-0.07970692
183	0xbe631b3a	-0.22178355
184	0x3e9623f1	0.29324296
185	0xbec6619b	-0.38746342
186	0xbeda7876	-0.4267003
187	0xbe0fcbce	-0.14042589
188	0xbef74526	-0.48294944
189	0x3e836a40	0.25667
190	0x3e7df5a9	0.24800743
191	0xbe9514b3	-0.29117355
192	0xbead630c	-0.3386463
193	0x3eaf11e1	0.34193328
194	0x3de8c6c0	0.113660336
195	0x3ec82446	0.39090174
196	0xbe6a625a	-0.2288908
197	0x3ed04fd1	0.40685895
198	0x3e054d7b	0.13017838
199	0xbe03addd	-0.12859292
200	0xbe8d08a4	-0.27545655
201	0x3ebbc6d3	0.36675128
202	0xbe9537d7	-0.29144165
203	0xbf05261c	-0.52011275
204	0x3bccaa07	0.006245855
205	0x3e39e624	0.18154198
206	0x3ebc6840	0.36798286
207	0x3f21a5b9	0.631435
208	0xbf040822	-0.5157491
209	0x3bd0f9e3	0.006377445
210	0x3ed4ad2d	0.41538373
211	0x3ea143a5	0.3149692
212	0xbee5fb56	-0.44918317
213	0x3ccbbb81	0.024869682
214	0xbe8892a1	-0.2667437
215	0xbea5d6af	-0.32390353
216	0x3df45b72	0.11931504
217	0xbe209d6b	-0.1568505
218	0xbe854537	-0.2602937
219	0xbe1f5fae	-0.15563843
220	0xbe0b699e	-0.13614509
221	0x3f0b10d0	0.5432253
222	0xbe3a1ea3	-0.1817575
223	0x3da46ca4	0.08028534
224	0x3efdbcb2	0.49558026
225	0x3da21eae	0.07916008
226	0xbec50c98	-0.3848617
227	0xbf180e62	-0.59396946
228	0xbe380bc9	-0.17973246
229	0xbf01d8d7	-0.50721496
230	0x3c76c3ca	0.015061328
231	0xbea2c06f	-0.3178744
232	0x3edafb7b	0.4276999
233	0x3d06f32a	0.032946743
234	0x3e76f8f4	0.24118406
235	0xbeb00495	-0.34378496
236	0xbe85eb8b	-0.26156268
237	0x3ef072f6	0.46962708
238	0xbf115de1	-0.5678387
239	0xbe9bbf2b	-0.30419287
240	0xbe82c126	-0.25537986
241	0x3ee9f990	0.45698214
242	0x3e9ce87d	0.30646124
243	0xbee9aab0	-0.45638037
244	0xbe360814	-0.17776519
245	0x3ed88ddb	0.42295727
246	0xbf0fecf9	-0.56220967
247	0xbea3fbc7	-0.32028028
248	0x3def6d08	0.11690718
249	0xbc621380	-0.0137985945
250	0x3e03d8fc	0.12875742
251	0xbde723f0	-0.112861514
252	0x3e84ca5d	0.2593564
253	0xbee68995	-0.45026842
254	0xbe174dfc	-0.14775842
255	0x3e029601	0.12752534

bias f4 [128]
0	0xbeb09611	-0.34489492
1	0x3ea26a61	0.31721786
2	0x3f007d93	0.5019161
3	0x3dc086ed	0.09400735
4	0x3d955ff8	0.07293695
5	0xbd9bab18	-0.07600993
6	0x3d417474	0.0472302
7	0xbea4c54a	-0.3218177
8	0x3f11eb74	0.569999
9	0xbcd50a60	-0.026005924
10	0x3f1c2df2	0.61007607
11	0x3e857c01	0.2607117
12	0xbe8bb4ea	-0.27286464
13	0xbe929448	-0.28628755
14	0x3e4a450f	0.19752906
15	0xbefb41f6	-0.49073762
16	0x3f210e68	0.6291261
17	0x3f0ff5fe	0.5623473
18	0xbe864005	-0.26220718
19	0x3e6c475f	0.23074101
20	0xbebb067a	-0.3652838
21	0xbe92b9b1	-0.28657296
22	0x3e4939b8	0.19650924
23	0xbed25647	-0.4108145
24	0xbe2288d6	-0.15872511
25	0xbea7dcef	-0.32785746
26	0xbed995a3	-0.42496976
27	0x3f2ed773	0.682975
28	0x3efa71e8	0.4891503
29	0x3e9900bb	0.2988337
30	0x3eaed045	0.34143272
31	0xbe754960	-0.23953772
32	0x3f1b65cc	0.60702205
33	0xbeda258b	-0.42606768
34	0x3ea335e7	0.31877062
35	0x3eff3b9e	0.49850172
36	0xbecea118	-0.4035728
37	0x3edf357d	0.43595496
38	0x3ed92713	0.42412624
39	0x3db54947	0.08851867
40	0x3d6f906c	0.05848734
41	0xbf0690e2	-0.52564824
42	0x3e8299ea	0.25508052
43	0xbe929782	-0.28631216
44	0x3e00e505	0.12587364
45	0x3e8b18d4	0.2716738
46	0x3f1face5	0.6237319
47	0x3ec80bca	0.39071494
48	0x3ddf41c5	0.109012164
49	0x3df203f5	0.11817161
50	0x3d0aaeac	0.033857986
51	0x3e9813c2	0.29702574
52	0xbe5318e3	-0.20614962
53	0xbe81a05e	-0.25317663
54	0x3ea02cb4	0.31284106
55	0x3efb7751	0.4911447
56	0x3eccac1b	0.39975056
57	0xbe664dea	-0.2249066
58	0xbee0ed27	-0.43930933
59	0x3ee0fb9c	0.43941963
60	0x3ea00981	0.3125725
61	0x3eda9fae	0.4269995
62	0xbeedc2c4	-0.46437657
63	0x3ea0f421	0.31436256
64	0x3ef6048a	0.48050338
65	0x3f1ab8da	0.6043831
66	0xbeb93e3e	-0.361803
67	0x3d9d3722	0.076765314
68	0x3edfc40d	0.43704262
69	0x3ea6607f	0.32495496
70	0x3f1eeb2f	0.6207761
71	0x3e48a1c1	0.19592954
72	0xbec512f2	-0.38491017
73	0x3d8b4cf1	0.06801785
74	0xbe9378e8	-0.28803182
75	0x3efd5f43	0.4948674
76	0xbe8e5e55	-0.27806345
77	0xbebef0c6	-0.3729307
78	0xbf053cb1	-0.5204573
79	0x3e99ce8a	0.3004039
80	0xbe882d3d	-0.26597014
81	0x3efb048a	0.490269
82	0x3ee60c39	0.449312
83	0xbef98fdd	-0.4874257
84	0x3f0f951a	0.56086886
85	0x3eba22de	0.36354727
86	0xbca863dc	-0.02055543
87	0x3f0b3b86	0.543877
88	0xbe8d241b	-0.2756661
89	0xbeccae96	-0.39976948
90	0xbe885ef9	-0.26634958
91	0x3ce50666	0.027957153
92	0xbeaec707	-0.3413622
93	0xbe982a2d	-0.29719678
94	0xbe1f06b0	-0.15529895
95	0x3ee288f4	0.44245112
96	0xbec7101a	-0.38879472
97	0x3edfb793	0.43694744
98	0x3ef0a7da	0.4700306
99	0xbd8681fa	-0.0656776
100	0xbe9ff7d7	-0.31243774
101	0x3e628f31	0.22124936
102	0xbd94ac73	-0.072594546
103	0x3d2b3632	0.04179973
104	0xbe8836eb	-0.266044
105	0x3ec4f5af	0.38468692
106	0x3ebf296a	0.37336284
107	0xbe01951d	-0.12654538
108	0x3f14fcf4	0.58198476
109	0x3e55ee0a	0.20891586
110	0xbe88c42c	-0.26712167
111	0x3bb61cdf	0.005557641
112	0xbe9bf47e	-0.3045997
113	0xbe75e38b	-0.24012582
114	0xbecf9434	-0.40542758
115	0xbda55c90	-0.080742955
116	0x3e372726	0.17886028
117	0x3ce455b8	0.027872905
118	0x3e8d13cf	0.27554175
119	0xbedbc8ee	-0.42926735
120	0xbd95f10a	-0.07321365
121	0xbea891d3	-0.32923755
122	0xbde411d0	-0.1113621
123	0x3f32000a	0.6953131
124	0xbd966731	-0.07343901
125	0x3ea35e98	0.31908107
126	0x3ea533c2	0.3226605
127	0x3d41004d	0.047119427

weight f4 [64, 128]
0	0xbbd0f78c	-0.006377166
1	0x3e42efb7	0.19036756
2	0x3cfb365e	0.030665573
3	0x3e2292d0	0.15876317
4	0x3e344d1c	0.1760754
5	0x3e0d00ac	0.13769788
6	0xbe1d94cf	-0.15388797
7	0x3d3947eb	0.045234602
8	0x3d8bee5d	0.068325736
9	0xbe62fa12	-0.22165707
10	0xbd19bc20	-0.037532926
11	0xbe197516	-0.14986071
12	0x3e10113a	0.14069071
13	0xbdf2cc9d	-0.11855433
14	0xbe4cce84	-0.20000654
15	0xbd89b7a2	-0.06724478
16	0xbe944d00	-0.28964996
17	0x3da6c316	0.081426784
18	0x3e0b12dc	0.13581413
19	0xbe0aabf8	-0.13542163
20	0xbe11e6c2	-0.14248183
21	0x3e11f980	0.14255333
22	0xbda632a0	-0.08115125
23	0xbe181af8	-0.14854038
24	0x3dd7373a	0.105085805
25	0xbe12cff3	-0.14337139
26	0x3e8e0140	0.2773533
27	0xbd9b0f3b	-0.07571264
28	0x3d9a54af	0.07535683
29	0x3ccc4a8b	0.024937889
30	0x3d8b1316	0.0679075
31	0xbe0bf70a	-0.13668457
32	0xbe813326	-0.25234336
33	0x3dbcf778	0.092268884
34	0xbc9294c1	-0.017893197
35	0xbe7caf75	-0.24676307
36	0x3e00ddb1	0.12584569
37	0xbe342428	-0.17591918
38	0xbe4128bd	-0.18863197
39	0xbe2081a6	-0.15674457
40	0xbe87ec40	-0.26547432
41	0x3c450410	0.012024894
42	0x3d3106fc	0.04321955
43	0xbcabf93a	-0.020992864
44	0xbe3abbe6	-0.1823574
45	0xbea5e85d	-0.32403842
46	0xbde02830	-0.10945165
47	0xbe3e1480	-0.18562508
48	0x3dd78d57	0.10525005
49	0xbd5f54d3	-0.054524254
50	0xbe1a3d6f	-0.15062498
51	0x3d9ef21d	0.07761023
52	0x3e7d8890	0.24759126
53	0xbdfd119b	-0.123568736
54	0xbe5d3e3d	-0.21605773
55	0x3a4dc884	0.00078500086
56	0xbdb8b6b4	-0.09019223
57	0x3d59b0b1	0.05314702
58	0x3e1fa1f5	0.15589125
59	0xbe00bbeb	-0.12571685
60	0xbe763702	-0.24044421
61	0xbe01938e	-0.12653944
62	0x3c9b8430	0.01898393
63	0xbc828ff7	-0.015937788
64	0xbe3cddd2	-0.18443993
65	0xbd04d040	-0.032425165
66	0xbcbe777b	-0.023250332
67	0x3e58fa44	0.21189219
68	0xbdd1f871	-0.102524646
69	0xbe00aa41	-0.12564947
70	0x3df0625c	0.117375106
71	0xbe2e4230	-0.17017436
72	0x3dc24d56	0.09487407
73	0xbda26f9e	-0.079314455
74	0x3dcd5307	0.10025602
75	0x3c3a205f	0.011360257
76	0x3e879be7	0.26486132
77	0x3de3eab4	0.111287504
78	0x3e5489fe	0.20755765
79	0x3e5b82e9	0.21436657
80	0xbd3ae533	-0.045628738
81	0xbc25a3b2	-0.010109829
82	0xbd0abe5b	-0.033872943
83	0x3e4152dd	0.18879266
84	0x3d6c14c7	0.057637002
85	0xbdd3560a	-0.10319145
86	0xbbdb2e61	-0.0066888784
87	0xbd8bd0f0	-0.06826961
88	0xbc572684	-0.013131741
89	0xbc824c31	-0.015905472
90	0x3b098042	0.0020980989
91	0x3d14d9dd	0.036340583
92	0x3e9b5637	0.30339214
93	0x3ca11e10	0.019667655
94	0x3d011878	0.031517476
95	0x3df8a88b	0.12141522
96	0xbd3b313f	-0.04570126
97	0xbe64d052	-0.22345093
98	0x3db8f25f	0.090306036
99	0x3e12c4c8	0.14332879
100	0xbd674ef6	-0.056471787
101	0xbd82d6c6	-0.06388621
102	0x3e00296a	0.12515798
103	0xbe2631fe	-0.16230008
104	0x3db591df	0.08865713
105	0x3df48269	0.11938936
106	0x3cbef9a5	0.0233124
107	0x3e04a527	0.12953626
108	0xbcabeeb2	-0.020987842
109	0x3dd51d4b	0.10405978
110	0x3e30ace0	0.17253447
111	0xbde5726b	-0.11203464
112	0x3e004409	0.12525953
113	0x3e829e02	0.25511175
114	0x3de13a86	0.109974906
115	0x3e13131f	0.14362763
116	0xbb071a96	-0.0020615212
117	0x3e35d55e	0.17757174
118	0x3d3c5cb3	0.045986842
119	0x3e59117b	0.21198075
120	0x3e6526df	0.2237811
121	0x3e01d605	0.12679298
122	0x3e6bd1c5	0.2302924
123	0xbdcf99e9	-0.10136778
124	0xbe9168bb	-0.28400216
125	0xbe80d2d5	-0.25160852
126	0xbe1b42b9	-0.15162171
127	0x3da2c84e	0.07948361
128	0x3c2100e4	0.0098268725
129	0x3e021747	0.12704192
130	0x3e3f1811	0.18661524
131	0x3d348727	0.044074204
132	0x3e57b326	0.21064433
133	0x3d058a72	0.032602735
134	0xbda0a1e4	-0.07843378
135	0x3def379d	0.11680529
136	0x3e15bb40	0.14622211
137	0x3b6a40bb	0.0035744149
138	0x3d6d20cb	0.057892602
139	0xbc8f6424	-0.017503805
140	0x3dcc0440	0.09961748
141	0xbd9e8158	-0.07739514
142	0xbdf75cab	-0.12078222
143	0x3ba5a270	0.0050547644
144	0xba9fce25	-0.0012192173
145	0x3de55d3f	0.11199426
146	0x3d7b4e69	0.061354075
147	0x3d1a1533	0.037617873
148	0xbda0d62f	-0.07853352
149	0x3e2fcc0f	0.17167686
150	0xbddd33db	-0.10800906
151	0xbe00a99a	-0.12564698
152	0x3e04e452	0.12977722
153	0xbc9538b9	-0.018215524
154	0x3d5ecc93	0.054394316
155	0x3d72a624	0.059240475
156	0x3e33167e	0.17489049
157	0x3e626d60	0.22112036
158	0x3e466935	0.19376071
159	0xbdaee6fd	-0.08540151
160	0xbd127d8e	-0.03576427
161	0x3d604b7d	0.05475949
162	0xbcd09b78	-0.025464758
163	0x3c8f90f3	0.017525172
164	0x3dd2460b	0.10267266
165	0xbc8cf267	-0.01720543
166	0xbdc3c333	-0.09558716
167	0xbe04836f	-0.12940763
168	0xbdd7ebd9	-0.10543031
169	0xbbcfdb3c	-0.0063432734
170	0x3da19e04	0.07891467
171	0xbd18b9a3	-0.037286412
172	0x3de869a4	0.11348274
173	0xbd14c3b7	-0.03631946
174	0x3e2aeb93	0.16691427
175	0x3c1f7c7a	0.009734267
176	0xbc521f68	-0.012824871
177	0xbd8678bc	-0.06565997
178	0xbdb89cbb	-0.09014269
179	0x3df8c10b	0.12146195
180	0x3dac54a8	0.084145844
181	0xbde90d4f	-0.113794915
182	0xbcd7088c	-0.026249193
183	0xbbd4ccea	-0.006494154
184	0xbd4376bd	-0.04772066
185	0x3e25f864	0.16208035
186	0x3e11b825	0.14230402
187	0xbe103d7c	-0.14085954
188	0xbdeced94	-0.11568752
189	0xbe0273e3	-0.1273952
190	0xbc6780f8	-0.01412987
191	0x3d9b4ff7	0.075836115
192	0xbd4ddd3f	-0.050259825
193	0x3b0e08d2	0.0021672738
194	0xbe04df38	-0.12975776
195	0x3cb2c53b	0.021822562
196	0x3cfae5e0	0.030627191
197	0xbc2144d7	-0.009843073
198	0x3d82dab8	0.063893735
199	0xbc8082ba	-0.015687335
200	0x3e0233a9	0.1271502
201	0xbc512222	-0.012764486
202	0x3d68f8e1	0.056877974
203	0x3e3d1f9f	0.18469094
204	0x3e49783b	0.1967477
205	0xbc04ac28	-0.008097686
206	0x3d16dd47	0.03683212
207	0x3debfd79	0.115229554
208	0xbd7eeb57	-0.062236156
209	0x3dc33c31	0.09532965
210	0xbcdc0545	-0.026857981
211	0x3d919d58	0.07110089
212	0x3e2afc0a	0.16697708
213	0xbd91db50	-0.07121909
214	0xbdfe75d0	-0.12424815
215	0x3e073706	0.13204584
216	0xbe036d68	-0.12834704
217	0x3cf5486b	0.029941758
218	0xbc8c8637	-0.017153842
219	0xbc9c8a47	-0.019108905
220	0x3bcf8688	0.006333176
221	0x3dc9ea15	0.09859101
222	0x3dd8e5d5	0.10590712
223	0x3de65b73	0.11247911
224	0xbb9bbe30	-0.0047528967
225	0x3d47907c	0.048721775
226	0x3e02eed5	0.1278642
227	0x3e5e3a04	0.21701819
228	0xbc6a4bb4	-0.014300276
229	0x3e3b5be1	0.18296768
230	0x3dbbe7f2	0.091750994
231	0x3ce00aa6	0.027348828
232	0x3e266d0c	0.16252536
233	0x3da3d3af	0.0799936
234	0x3e1b7063	0.15179591
235	0xbcd46e91	-0.025931628
236	0x3c2db665	0.010602568
237	0x3e1a05b9	0.15041246
238	0x3d924656	0.07142322
239	0xbc6a86c8	-0.014314361
240	0x3daf5312	0.08560766
241	0x3dbc512b	0.09195169
242	0x3dc4d7b9	0.09611458
243	0x3e21c676	0.15798363
244	0x3d87850b	0.06617173
245	0x3e0193dd	0.12654062
246	0x3e094120	0.1340375
247	0x3dd295af	0.10282456
248	0x3e22d268	0.15900576
249	0x3dcd3347	0.10019546
250	0x3e3b6114	0.18298751
251	0x3e3911a3	0.18073134
252	0xbd11237c	-0.03543423
253	0xbb0dbff0	-0.0021629296
254	0xbcf3fc01	-0.02978325
255	0x3d158975	0.036508042

bias f4 [64]
0	0xbdf4dd84	-0.11956313
1	0x3d739c21	0.059475068
2	0xbde787a8	-0.11305171
3	0xbe1a3dca	-0.15062633
4	0xbd0001b4	-0.031251624
5	0xbdb759a5	-0.08952645
6	0x3deb007a	0.114747
7	0x3d77de09	0.060514484
8	0x3e652406	0.22377023
9	0xbdb31cb9	-0.08745713
10	0xbd76ea6f	-0.060282167
11	0x3e801bd7	0.2502124
12	0x3da51d2c	0.08062205
13	0x3e638f26	0.22222576
14	0xbbef786c	-0.0073080566
15	0x3dc847c8	0.09779316
16	0x3d16ab7a	0.036784627
17	0x3e2aba79	0.16672696
18	0xbd88ccd5	-0.066796936
19	0xbd42fb08	-0.047602683
20	0xbd9d1123	-0.07669284
21	0x3dc4e98a	0.096148565
22	0x3e14f1a1	0.14545299
23	0x3d9157f2	0.07096852
24	0xbcccc4e2	-0.024996225
25	0x3d65559d	0.05598985
26	0xbdf00d18	-0.117212474
27	0x3e35e271	0.17762162
28	0x3d036f11	0.032088343
29	0xbe09f2d6	-0.13471541
30	0x3d98f3e8	0.074683964
31	0xbdbe1e8e	-0.092831716
32	0x3dc8f80f	0.098129384
33	0x3c9b3b7a	0.01894926
34	0x3debc32b	0.11511835
35	0xbd926c3e	-0.07149552
36	0x3e8205c6	0.2539503
37	0xbe06d578	-0.1316737
38	0x3e3b07ce	0.18264696
39	0x3cf59a34	0.029980756
40	0x3da8f628	0.082500756
41	0xbc55b748	-0.013044186
42	0x3b3b5be8	0.0028588716
43	0x3d6b6389	0.05746797
44	0xbcf68184	-0.030091055
45	0x3e443d26	0.19163951
46	0x3de5537d	0.11197565
47	0x3d4e4ac0	0.050364256
48	0x3e283f7b	0.16430466
49	0xbdabb985	-0.083849944
50	0xbd6ddf04	-0.058074012
51	0x3dd2ad73	0.10286989
52	0xbd5214c2	-0.051289327
53	0xbcb3334d	-0.021875048
54	0xbaf4a20e	-0.0018664019
55	0x3e2609af	0.16214631
56	0xbe04e6a5	-0.12978609
57	0xba88377e	-0.0010392515
58	0x3c0f0f61	0.008731694
59	0xbd4c5bdf	-0.049892303
60	0x3e41841e	0.18898055
61	0xbdc15418	-0.09439868
62	0xbdd2e56a	-0.102976635
63	0x3d243ed2	0.040098973

weight f4 [3, 64]
0	0xbe20059b	-0.15627138
1	0xbe5e5f5b	-0.21716063
2	0x3e3a8bec	0.18217438
3	0xbd404733	-0.0469429
4	0x3de295fa	0.11063762
5	0x3df3f370	0.119116664
6	0x3e53e747	0.20693694
7	0xbe826f63	-0.25475606
8	0x3e4a9a8f	0.19785522
9	0xbe2df2db	-0.16987173
10	0xbdd19603	-0.102336906
11	0x3d5c4f2f	0.053786453
12	0x3de922fb	0.11383625
13	0xbe43d0a7	-0.19122563
14	0xbd2fd348	-0.042926103
15	0xbdf5261f	-0.11970162
16	0x3df13d1e	0.11779235
17	0x3aca2acc	0.0015424131
18	0x3e4a9165	0.19782026
19	0xbdee3fe2	-0.116332784
20	0xbe450f75	-0.19244178
21	0xbe374e43	-0.17900948
22	0xbe847449	-0.2586997
23	0xbdf3c35d	-0.11902497
24	0xbd98994d	-0.07451115
25	0x3e3f60ef	0.18689321
26	0xbcd9e10c	-0.026596569
27	0xbe5f739a	-0.21821442
28	0xbe7296be	-0.23690316
29	0xbd853d75	-0.065058626
30	0xbe821b6f	-0.25411555
31	0xbda23c43	-0.0792165
32	0xbe698ea5	-0.22808321
33	0x3dd9ea97	0.106404476
34	0x3e616279	0.2201022
35	0x3d4c6b27	0.049906876
36	0x3e35ea8d	0.17765255
37	0x3dc16809	0.09443671
38	0xbdcf2187	-0.10113817
39	0xbdc512f8	-0.096227586
40	0xbe76d7cd	-0.24105759
41	0xbcb862b5	-0.022508005
42	0x3bced5bb	0.0063120998
43	0x3d1e728f	0.03868347
44	0xbdcca609	-0.09992606
45	0x3e40f66f	0.18844007
46	0x3e6e540f	0.23274253
47	0x3e228cce	0.15874025
48	0xbe5ab2ac	-0.2135722
49	0x3ccd94a8	0.025095299
50	0xbdb234bf	-0.08701467
51	0xbe4e276b	-0.20132224
52	0x3da6021a	0.081058696
53	0x3d2b3563	0.04179896
54	0xbd6134d4	-0.05498202
55	0x3e591f4d	0.21203347
56	0x3cbdb163	0.023155874
57	0xbe207fee	-0.15673801
58	0x3e431371	0.19050385
59	0xbe2cc1ef	-0.16870855
60	0xbdafc06f	-0.08581626
61	0xbe184f11	-0.14873911
62	0xbcea73f3	-0.028619742
63	0xbbe9861c	-0.007126583
64	0xbdc2e3f1	-0.095161326
65	0x3d91d343	0.07120373
66	0xbe42bd62	-0.19017556
67	0xbe945872	-0.28973728
68	0x3b0f1380	0.0021831691
69	0xbe101878	-0.14071834
70	0xbdcae0fc	-0.099061936
71	0x3e2bd336	0.1677979
72	0x3e4f1b71	0.20225312
73	0xbe016fe3	-0.12640338
74	0xbae7536f	-0.0017648767
75	0x3e533aa2	0.20627835
76	0xbc845ddc	-0.016158037
77	0x3e48239d	0.19544835
78	0xbdbbb37d	-0.09165094
79	0x3e5e438d	0.21705456
80	0xbdfcc6ea	-0.12342627
81	0x3e58a6cd	0.2115738
82	0xbe5656dc	-0.20931572
83	0x3d989ef2	0.074521914
84	0xbe6189bf	-0.22025202
85	0x3e41ba6f	0.18918775
86	0x3e40d6ba	0.18831912
87	0x3d954af2	0.07289685
88	0xbe76e8d1	-0.2411225
89	0x3cbb6df9	0.022879587
90	0xbc9a0fe2	-0.018806402
91	0x3db43bfc	0.088005036
92	0x3d3f3f09	0.046690974
93	0xbe272bca	-0.16325298
94	0xbba4b466	-0.005026388
95	0xbd6cda70	-0.057825506
96	0x3dff8d6a	0.124781445
97	0xbe1919de	-0.14951274
98	0xbd4a6af5	-0.04941841
99	0xbdc53057	-0.09628361
100	0x3e770b61	0.24125434
101	0x3d75f4b0	0.060047805
102	0x3e6c8a79	0.23099698
103	0xbd17b374	-0.037036374
104	0xbc93cee8	-0.018042997
105	0x3bba5f66	0.005687642
106	0xbe0d805c	-0.13818496
107	0xbe19387f	-0.14962958
108	0xbd30105e	-0.04298436
109	0x3dafa32e	0.08576046
110	0xbe04591b	-0.12924616
111	0xbe26454f	-0.16237377
112	0x3e5951d8	0.21222627
113	0xbe66631a	-0.22498742
114	0x3c9d72a2	0.0192197
115	0xbc9756f5	-0.018474082
116	0x3d9be256	0.076115295
117	0xbc6dede8	-0.014522053
118	0x3dbb6146	0.09149413
119	0xbdc898d3	-0.09794774
120	0x3b38a702	0.0028175716
121	0xbe3644cb	-0.1779968
122	0xbdd80830	-0.10548437
123	0x3e356ba0	0.17716837
124	0x3e662910	0.22476602
125	0x3b2720dc	0.0025501763
126	0xbdc08892	-0.09401049
127	0xbc46ca75	-0.01213323
128	0x3e32af1b	0.1744961
129	0x3df83236	0.12118952
130	0x3dd4e819	0.103958316
131	0x3d6f6d97	0.058454122
132	0x3d16faf0	0.036860406
133	0x3e47861d	0.19484754
134	0xbdfe6f61	-0.124235876
135	0x3db6b2f2	0.0892085
136	0xbe46057c	-0.1933803
137	0x3e8b7c71	0.2724338
138	0xbd3ba022	-0.04580701
139	0xbe9a2120	-0.30103397
140	0xbe40b58a	-0.18819252
141	0xbb2d47f4	-0.0026440592
142	0x3cb5e5a9	0.022204237
143	0xbe8d5d2f	-0.27610156
144	0xbc80d698	-0.015727326
145	0xbe1c4386	-0.15260133
146	0xbdd506e1	-0.10401703
147	0x3ce97588	0.028498426
148	0x3e1c69f7	0.15274797
149	0xbe52efea	-0.20599332
150	0x3dc8538a	0.09781559
151	0xbdc9e172	-0.098574534
152	0x3e805080	0.25061417
153	0xbe94db27	-0.2907345
154	0xbc354a5f	-0.011065095
155	0x3db09eee	0.086240634
156	0x3e6027ae	0.21890137
157	0x3c855eb4	0.01628051
158	0x3def050e	0.11670886
159	0x3dee2b59	0.11629362
160	0xbdf46c0b	-0.1193467
161	0xbd3d72f5	-0.04625221
162	0xbe62142e	-0.2207801
163	0x3cc27dbd	0.023741597
164	0xbe83d413	-0.25747737
165	0xbd1c8adf	-0.038218375
166	0x3d66c995	0.056344587
167	0x3d2efdcc	0.04272251
168	0x3e850c1d	0.25985804
169	0x3b4c7a7c	0.0031200936
170	0x3d1998b0	0.03749913
171	0xbd1d1baf	-0.03835648
172	0x3da49118	0.08035487
173	0xbe9f460a	-0.31108123
174	0xbe3a6bb6	-0.18205151
175	0xbe206e0b	-0.15666978
176	0xbe74a491	-0.23890902
177	0xbe606656	-0.21914038
178	0xbd82c1e1	-0.06384636
179	0x3e686a71	0.22696854
180	0xbdeb2940	-0.11482477
181	0x3e100885	0.1406575
182	0x3e7a4461	0.24440147
183	0xbe2c20e3	-0.1680942
184	0x3dfd4749	0.12367112
185	0x3e88f173	0.2674671
186	0xbd6b3ab2	-0.057429023
187	0xbe0d3293	-0.13788824
188	0x3d91bf2e	0.07116543
189	0x3dd9aa0f	0.10628139
190	0xbc4e8211	-0.012604252
191	0x3e6f0529	0.23341812

bias f4 [3]
0	0xbe3aac36	-0.18229756
1	0x3dfc6066	0.12323074
2	0xbe3cfb26	-0.1845518
